…
https://localhost:8080/"},"executionInfo":{"status":"ok","timestamp":1628223359531,"user_tz":-540,"elapsed":530,"user":{"displayName":"이우재","photoUrl":"","userId":"15709195273175322901"}},"outputId":"67e1c874-f1d0-49e5-8f89-5da3af817313"},"source":["model.summary()"],"execution_count":14,"outputs":[{"output_type":"stream","text":["Model: \"sequential_2\"\n","_________________________________________________________________\n","Layer (type)                 Output Shape              Param #   \n","=================================================================\n","conv2d_1 (Conv2D)            (None, 30, 30, 32)        896       \n","_________________________________________________________________\n","max_pooling2d (MaxPooling2D) (None, 15, 15, 32)        0         \n","_________________________________________________________________\n","conv2d_2 (Conv2D)            (None, 13, 13, 64)        18496     \n","_________________________________________________________________\n","max_pooling2d_1 (MaxPooling2 (None, 6, 6, 64)          0         \n","_________________________________________________________________\n","conv2d_3 (Conv2D)            (None, 4, 4, 64)          36928     \n","_________________________________________________________________\n","flatten (Flatten)            (None, 1024)              0         \n","_________________________________________________________________\n","dense (Dense)                (None, 64)                65600     \n","_________________________________________________________________\n","dense_1 (Dense)              (None, 10)                650       \n","=================================================================\n","Total params: 122,570\n","Trainable params: 122,570\n","Non-trainable params: 0\n","_________________________________________________________________\n"],"name":"stdout"}]},{"cell_type":"markdown","metadata":{"id":"tpjBDBeYoyuj"},"source":["> ## 2) Model Compile"]},{"cell_type":"markdown","metadata":{"id":"f3sxkQa0Jo
…
