…
i":"https://localhost:8080/"},"executionInfo":{"status":"ok","timestamp":1628225916301,"user_tz":-540,"elapsed":84,"user":{"displayName":"이우재","photoUrl":"","userId":"15709195273175322901"}},"outputId":"167106db-957a-4837-de71-37a24c5c5101"},"source":["model.summary()"],"execution_count":8,"outputs":[{"output_type":"stream","text":["Model: \"sequential\"\n","_________________________________________________________________\n","Layer (type)                 Output Shape              Param #   \n","=================================================================\n","conv2d (Conv2D)              (None, 32, 32, 128)       3584      \n","_________________________________________________________________\n","max_pooling2d (MaxPooling2D) (None, 16, 16, 128)       0         \n","_________________________________________________________________\n","conv2d_1 (Conv2D)            (None, 14, 14, 128)       147584    \n","_________________________________________________________________\n","max_pooling2d_1 (MaxPooling2 (None, 7, 7, 128)         0         \n","_________________________________________________________________\n","conv2d_2 (Conv2D)            (None, 5, 5, 128)         147584    \n","_________________________________________________________________\n","flatten (Flatten)            (None, 3200)              0         \n","_________________________________________________________________\n","dense (Dense)                (None, 256)               819456    \n","_________________________________________________________________\n","dense_1 (Dense)              (None, 100)               25700     \n","=================================================================\n","Total params: 1,143,908\n","Trainable params: 1,143,908\n","Non-trainable params: 0\n","_________________________________________________________________\n"],"name":"stdout"}]},{"cell_type":"markdown","metadata":{"id":"tpjBDBeYoyuj"},"source":["> ## 2) Model Compile"]},{"cell_type":"markdown","metadata":{"id":"f3sxkQa0
…
